2022/06/02/MNIST对抗样本攻击与防御/param.pth (torch, 941253 bytes, 28 tensors)

conv1.weight f4 [32, 1, 5, 5]
000000 12 56 a1 bd f7 9f e4 3c 0a bc 37 be 36 7e 83 3d
       -0.07877745 0.027908308 -0.17942825 0.06420557
000010 67 5a 45 be ff 45 34 be b6 eb 6e 3d 11 e5 db 3d
       -0.19272767 -0.17604826 0.05833026 0.1073705
000020 78 5a 36 bd 6e 86 b6 bd ed a1 05 be 24 f9 40 3d
       -0.04451987 -0.08912359 -0.13050051 0.0471126
000030 db bd c0 3d d9 bf 29 3e a7 a6 c0 3d 5d ad b6 3c
       0.09411212 0.1657709 0.094067864 0.022299463
000040 97 27 2c be af 96 a5 3d 09 d4 0a 3d 74 4e 0d bd
       -0.16811977 0.08085381 0.03389362 -0.034498647
000050 1e f1 7b 3e 50 8a a6 bb bf 00 1b 3e 0a b2 83 bc
       0.24603698 -0.005082406 0.15137003 -0.016076107
000060 e3 52 c5 3d df 0d 57 3e 3d 82 ff bd b3 9c 9d ba
       0.0963495 0.21001385 -0.12476013 -0.001202485
000070 48 b3 2c be cc 8c dc 3d d3 7f 1f 3e 44 2c 2b 3e
       -0.16865265 0.107690424 0.15576105 0.16716105
000080 3b 19 3e 3e 47 15 03 3e b4 73 83 3c 44 76 5b be
       0.18564312 0.12801085 0.016046382 -0.21431834
000090 11 5b 10 be 08 7e 78 bd fe a2 16 bd b5 0b 33 bd
       -0.14097239 -0.060667068 -0.036776535 -0.043712337
0000a0 fa 89 39 be ca e0 34 bd c2 d5 21 3d 77 1e 52 3c
       -0.1811904 -0.044159688 0.039510496 0.012824646
0000b0 8d 47 97 bd 60 f3 12 3d bc 6f 19 be b9 71 78 3d
       -0.07386694 0.03587663 -0.1498403 0.06065533
0000c0 6b ad 07 3d 37 0d 55 3d 41 88 19 bd 35 6b 1d be
       0.03312437 0.052014556 -0.037483457 -0.15372927
0000d0 13 1f fc 3d de 9f 20 3d 2b 21 0b 3e 37 64 04 3e
       0.123106144 0.03921496 0.13586871 0.12928854
0000e0 1b 57 82 bd 62 d5 f9 bd 52 01 15 3e 9a 20 db bc
       -0.0636427 -0.12198903 0.14551285 -0.026748944
0000f0 bb e4 e6 3d 0e f6 02 be c3 b9 37 be aa 10 76 be
       0.112740956 -0.12789175 -0.17941956 -0.24029794
000100 29 1f fb 3d ec dd 94 3d d6 7d 59 3e 14 96 08 3d
       0.12261803 0.07268891 0.21239409 0.03334625
000110 22 5f 8f bd 04 12 19 be 71 d5 3d be de 7a e9 3d
       -0.07000567 -0.14948279 -0.18538453 0.11400388
000120 1d ec 6b bb f7 6d a9 3d 6e e3 e7 3d 39 3c 48 3e
       -0.0035998889 0.08272927 0.11322676 0.19554223
000130 d8 e9 ca bd 7d 47 6e 3d 97 58 f1 bd 20 6c 2f be
       -0.099078834 0.058173645 -0.11784475 -0.1713109
000140 e2 03 f6 3c a5 54 97 3d ad 07 96 3d ab b9 b6 bd
       0.030031148 0.073891915 0.07325683 -0.08922132
000150 7a 95 3a be 0c 47 e1 3d 7c 82 85 3d 78 25 0f bc
       -0.18221083 0.10999879 0.065190285 -0.008736961
000160 ba ff d5 3b 88 7c 3a be 03 50 02 be 08 2a 59 3d
       0.006530729 -0.18211567 -0.12725835 0.0530186
000170 af 75 ec bd ca fa 0f 3e 01 64 f4 bd 7d 1f 46 3e
       -0.11545884 0.14060512 -0.11933137 0.1934795
000180 af b6 0f 3e bb eb 0d be 21 00 1d 3e 0b 1d c0 3b
       0.14034532 -0.13859455 0.1533208 0.005862837
000190 8b 66 fe bd ca 92 8e bc d6 84 8a bc b4 62 06 bd
       -0.12421902 -0.017403979 -0.016909044 -0.032808974
0001a0 d5 7e c1 3d b3 04 0e be 67 96 44 3c 95 f9 06 3d
       0.094480194 -0.1386898 0.011998749 0.032952864
0001b0 e6 7f dd bd ea c7 fb 3d d6 28 52 3d 08 9b c3 bd
       -0.1081541 0.1229399 0.051308475 -0.09551054
0001c0 58 c8 2d bd c2 71 00 3e 1e f2 09 3e f5 49 25 be
       -0.04242739 0.12543395 0.13471267 -0.16141494
0001d0 8c 34 3c be 43 d6 07 3e d7 9d 0e 3e 7d 80 f1 3d
       -0.1837942 0.13265328 0.13927399 0.11792085
0001e0 cc 49 f7 bd 2d f9 47 be 5b fc 17 3e 8a a2 1a 3e
       -0.120746225 -0.19528647 0.1484236 0.15101066
0001f0 be 7a 2c 3e 0a e4 59 3d 90 a1 a4 bd 8d b6 06 be
       0.16843697 0.05319599 -0.08038628 -0.13155575
000200 0e 0a 53 bd 73 79 f2 bb ac 97 d1 3b f1 64 8b be
       -0.05152326 -0.007399732 0.0063962545 -0.2722545
000210 18 de c6 3c 1d fe e4 bb e3 d7 cd bd 8d 13 61 bd
       0.024275824 -0.0069883005 -0.10050943 -0.054950286
000220 32 75 b3 3d bd 83 2a 3d d9 51 31 3e b7 ca f9 bd
       0.087625876 0.04162954 0.17316379 -0.12196868
000230 e5 ad d6 3d 79 a9 4b 3e 1f 9f ee bc 0d c5 11 3d
       0.104823865 0.19888867 -0.02912861 0.035588313
000240 72 44 91 bc 55 07 0f 3d 9e 40 26 3e 20 c2 b0 3d
       -0.017732833 0.0349191 0.16235587 0.086307764
000250 1b 70 9b 3d 3c 06 2b 3d 09 6a 8c be be 3f 29 be
       0.07589742 0.041753992 -0.27424648 -0.16528222
000260 7e 1d 63 bd d5 d1 41 3d 24 9a 02 3e fd 96 29 be
       -0.055448048 0.047319252 0.12754112 -0.16561504
000270 22 76 21 be 57 3a b2 3c cd 2b 63 3e 9b 58 4b 3e
       -0.1576772 0.021756334 0.22184677 0.19858019
000280 87 b1 2e be 83 53 33 3e c6 6a 00 3d d7 9d 1e 3d
       -0.17059909 0.17512326 0.031351827 0.038724747
000290 95 0c b9 bd a3 01 22 3d 57 7e 83 3c 4d ef cd bd
       -0.09035603 0.039552342 0.016051454 -0.100554086
0002a0 05 d1 6f bd 99 10 65 3e f8 cb 3b be be 5b 8c 3d
       -0.058548946 0.22369613 -0.18339527 0.06853436
0002b0 02 fe e7 3c aa 25 cf 3d e5 83 13 be e4 2c 35 3d
       0.028319363 0.10114606 -0.14405783 0.044232264
0002c0 b7 f0 f1 3d 91 00 f1 3c 16 d7 02 3c 03 eb fa bd
       0.11813491 0.029419215 0.007985851 -0.12251856
0002d0 fa b0 5c bd 53 c2 f2 bd 4e cf ba bd 77 66 04 be
       -0.053879716 -0.11853471 -0.091215715 -0.12929712
0002e0 3e cb 46 bd 3e 3c 11 be bf 7b a1 3d 68 e1 3c 3e
       -0.04853367 -0.14183137 0.07884931 0.1844536
0002f0 2a 67 51 bd 07 43 4b 3e 7f 2d 44 3e 66 85 bf bd
       -0.051123776 0.19849788 0.1915798 -0.093516156
000300 77 d8 8d bd c8 8f de 3d 45 d1 01 3d 33 20 79 bc
       -0.06926053 0.10867268 0.031693716 -0.015205431
000310 fe ec 7e bd 8b 42 31 be 51 60 0a 3e e6 f8 ca bd
       -0.062237732 -0.1731054 0.13513304 -0.09910755
000320 24 03 a9 3d ed 2f 4e be 48 25 d9 3d a2 e7 d2 bd
       0.08252552 -0.2013547 0.10602814 -0.10298087
000330 f7 ec 10 be 0e 73 25 3e b5 93 48 bc cc a9 45 be
       -0.14152895 0.16157171 -0.012242247 -0.19303054
000340 39 fc 5a 3e 2b 59 02 3d c8 d3 c4 3d 97 0e 02 be
       0.21385278 0.03182332 0.096107066 -0.12700878
000350 c6 83 36 be 25 34 4a 3e b5 75 29 be 58 1e 30 3e
       -0.17823705 0.19746454 -0.16548808 0.17199075
000360 eb 4f 87 3d 2e 9d 2a be de 79 c8 3d a8 26 6b be
       0.0660704 -0.16661522 0.09788869 -0.22963965
000370 72 b9 fa 3d e8 f1 90 bd c4 2c 2a 3e 7d e4 c1 bc
       0.12242402 -0.0707739 0.16618639 -0.023668522
000380 64 cd 96 3d 8e 6c 0c be bf 7b 2f 3e b7 df 2c bd
       0.07363394 -0.13713285 0.17137049 -0.04220554
000390 34 e7 17 3c 1d b9 fa bd f8 1a 9c 3d 8e 4a 90 3d
       0.009271432 -0.12242339 0.076223314 0.0704547
0003a0 ce 4e 2a 3d 43 4f 89 3d be a2 5e be f3 4b 2b 3c
       0.04157906 0.06704571 -0.21741769 0.010455119
0003b0 27 5f 16 3e 73 95 65 be 10 87 74 be 15 f2 fb 3d
       0.14684735 -0.22420292 -0.23879647 0.12302033
0003c0 92 01 cc 3d e4 cf 54 be bd 38 60 be 57 d2 36 3e
       0.09961237 -0.20782429 -0.21896644 0.17853676
0003d0 ab ab f8 ba 1a 96 13 be 7c ea 1f 3e e0 48 86 3a
       -0.001897206 -0.14412728 0.15616792 0.0010245107
0003e0 a5 1f a1 3d c7 9d df 3d e9 85 0f be c8 47 59 be
       0.07867364 0.109187655 -0.14015926 -0.21218789
0003f0 ca 12 bb 3d a6 f6 0a be 64 8b 36 be 86 59 3b be
       0.09134443 -0.13570651 -0.17826611 -0.18295869

conv1.bias f4 [32]
000000 35 2e 88 be b9 fd 81 3d 36 68 7e be 78 de ae 3d
       -0.26597753 0.06347222 -0.24844441 0.08538526
000010 f3 2e 56 be 7c 88 c4 bd cd de 34 3e 15 3e c8 bd
       -0.20916347 -0.09596345 0.17663117 -0.09777466
000020 a9 9f 22 be dc f1 8e bd d3 07 03 bc 8c eb a9 b8
       -0.15881218 -0.06979725 -0.007997471 -8.102422e-05
000030 b2 3b 3b bc e7 58 0e be 1c 4f 50 bd ad 9a 0a 3e
       -0.011427807 -0.13901101 -0.050856695 0.13535567
000040 b2 3f d4 bc d8 cb 37 3d c4 51 5d be 0a 08 28 3d
       -0.025909279 0.044872135 -0.21613222 0.04102329
000050 2d 54 6f be 89 62 1f be c1 5c 59 bd d2 f5 57 be
       -0.23371954 -0.15564932 -0.053066973 -0.21089867
000060 5c 84 21 be 45 c7 75 be 30 3b 27 be 65 89 7a be
       -0.15773147 -0.24001797 -0.16331172 -0.24466474
000070 87 2a b9 bd 78 45 06 bd ae be 06 ba ea 24 02 be
       -0.090413146 -0.032781094 -0.0005140108 -0.12709394

batch1.weight f4 [32]
000000 f2 6e 64 3f 15 b1 73 3f fc b3 8c 3f dd f2 7a 3f
       0.8923179 0.9519208 1.0992427 0.9802683
000010 60 d2 70 3f 17 2d 53 3f 58 2d 72 3f 08 76 7e 3f
       0.94071007 0.82490677 0.9460044 0.9939885
000020 bd c0 70 3f e3 e6 95 3f 02 23 84 3f 51 91 60 3f
       0.94044095 1.1711086 1.0323184 0.87721735
000030 0f 9c 7e 3f 14 cc 8a 3f bc 30 88 3f 92 1d 65 3f
       0.99456877 1.084353 1.0639873 0.89498246
000040 cf 4c 85 3f aa c9 62 3f 1f 64 77 3f 62 43 5d 3f
       1.0414065 0.88588965 0.9663715 0.86430943
000050 59 58 6e 3f 71 2b 85 3f 06 78 89 3f 63 b3 84 3f
       0.9310356 1.0403882 1.0739753 1.0367244
000060 2b ea 61 3f a3 18 7f 3f f2 40 8a 3f 66 fe 6c 3f
       0.88247937 0.9964697 1.080107 0.9257568
000070 ce 77 7d 3f 8e c4 7e 3f 71 b3 85 3f ce 50 84 3f
       0.9901093 0.9951867 1.0445386 1.033716

batch1.bias f4 [32]
000000 f3 c0 7a 3e 6a e4 84 bd af a5 08 bd a8 d5 a8 3d
       0.24487667 -0.06488879 -0.033361133 0.08243877
000010 a2 4f 04 3e e2 d8 57 3e a2 6a 80 3d f5 8a d8 bc
       0.12921003 0.21078828 0.062703386 -0.026433447
000020 bb 91 de 3d 0c 05 bf 3d f9 7b b9 bd 0a c9 53 3e
       0.1086764 0.093271345 -0.09056849 0.20682159
000030 1c ba 01 3c 9a a6 a8 bd 6b a9 dd 3d e3 19 12 3e
       0.007917907 -0.08234902 0.108233295 0.14267687
000040 8c 79 b3 bc 8b e3 ad 3b a1 0e 43 3e d0 12 44 3d
       -0.021908544 0.0053066663 0.19048549 0.047869503
000050 8e fa 8e 3e 8d c0 a9 bd cd 7d 34 3d c0 25 d2 3c
       0.27925533 -0.08288679 0.044065285 0.025652766
000060 f5 70 12 3e fb f4 54 3c b9 27 34 bc fd d3 c6 3d
       0.14300902 0.012997861 -0.010995799 0.09708402
000070 a5 36 4a 3e d3 44 12 be b3 c1 19 3e af 26 d2 bc
       0.19747408 -0.14284067 0.15015297 -0.025653211

batch1.running_mean f4 [32]
000000 ac 48 11 3e c7 4f 36 3e 0e b5 62 3d 90 16 8e 3e
       0.14187878 0.1780387 0.05534845 0.2775159
000010 6d 73 8f 3e b0 50 5c 3e 26 a8 cd 3e c7 99 48 3d
       0.2801775 0.21515155 0.4016735 0.04897478
000020 1f 1f c5 3d e0 2e e0 3d 66 af 5e 3e 24 2f ba 3d
       0.096250765 0.10946441 0.21746597 0.090910226
000030 51 64 da 3d b7 2e 47 3e e0 9e 66 3e 3a 30 8f 3e
       0.10663665 0.19451414 0.22521544 0.2796648
000040 38 4c 58 3e 47 cf 88 3e 1c 0b cc 3d f4 c9 4c 3e
       0.21122825 0.2672064 0.099630564 0.19998914
000050 86 86 b4 3d 96 99 1e 3e 7f 8f 65 3e e0 f7 24 3d
       0.08814721 0.15488276 0.2241802 0.040275455
000060 d9 17 6b 3e 4e 71 e3 3d 7e f5 4f 3e 45 17 21 3e
       0.22958316 0.111055955 0.20308492 0.15731533
000070 96 a0 63 3e 36 95 00 3e 6f ad 41 3e 7e 04 02 3e
       0.22229227 0.1255692 0.18913816 0.12697026

batch1.running_var f4 [32]
000000 f4 ae e5 3d 2d b6 b4 3d 39 37 e2 3c ad cc 33 3e
       0.1121501 0.0882381 0.027614223 0.17558546
000010 ee 7a d8 3e 16 59 68 3e b2 6a 88 3e d6 69 af 3c
       0.42281288 0.22690234 0.26643902 0.021412771
000020 72 d1 90 3d d2 a4 6d 3d d7 2e 0d 3e f0 bc 23 3d
       0.070711985 0.058018513 0.13787399 0.039975107
000030 79 16 1f 3d bf ab 81 3d 49 ab d0 3d c4 9a 03 3e
       0.03883979 0.06331586 0.1018892 0.12852007
000040 1f d6 6c 3d ce 5e 85 3e 61 31 7f 3d 32 bb 41 3e
       0.05782139 0.26048893 0.06230295 0.18919066
000050 5e 1f 9e 3d 04 8a d0 3c 06 7d c4 3d 5f 41 db 3c
       0.077208266 0.025456436 0.09594159 0.02676457
000060 fe cf 8b 3e ed 18 d3 3d 6f 57 36 3d 26 b7 07 3e
       0.27307123 0.103074886 0.044516977 0.1325346
000070 39 48 81 3e 6d 6b 2d 3d 94 00 45 3e 3f 4e 63 3d
       0.25250414 0.042338777 0.19238502 0.055494543

conv2.weight f4 [32, 32, 5, 5]
000000 bd 6a 23 3c 69 52 4e bc a2 32 16 ba 19 31 e2 3b
       0.009974179 -0.01259289 -0.0005729591 0.0069028256
000010 33 0f 75 bd ba 99 51 3d 6c 67 1e bc 5a 93 11 bd
       -0.05982895 0.051171996 -0.009668212 -0.035540916
000020 cf d6 75 bd 3d f3 9e bd 8c 19 23 ba 15 21 d6 3b
       -0.06001931 -0.07761238 -0.00062217633 0.0065347054
000030 f6 4e ab bc 47 eb 0b bd 70 d0 5c bd 0f 36 4b bd
       -0.020911675 -0.034159925 -0.05390972 -0.0496121
000040 b7 c0 0e bd 6a 2c 7c bc 5e a9 d9 bc 5a 45 48 3c
       -0.034851756 -0.0153914485 -0.026570018 0.012223566
000050 f5 14 6a ba 95 f7 44 bc f6 02 e2 bc ab b1 70 3c
       -0.00089295144 -0.012021919 -0.027589303 0.014690797
000060 76 41 d2 bc 81 38 e9 bc a3 d0 13 bd 06 60 6b 3c
       -0.02566598 -0.028469326 -0.036087643 0.0143661555
000070 1d 21 8f 3c de b7 a8 bb 5f 8a 33 bd 59 56 95 3c
       0.017471844 -0.005148872 -0.043833133 0.01822965
000080 d5 d4 cc 3c 88 5b c8 3d 9c 55 97 3c 15 d0 d0 bc
       0.02500383 0.09783083 0.018473439 -0.025489846
000090 4f a2 00 3d 83 3a eb 3c 89 f5 06 3d d8 e7 bc 3c
       0.03140479 0.028714424 0.032949004 0.02305977
0000a0 ba 1e 2a bd 2f 0c e2 bc 68 0d c2 3c 31 34 d4 bc
       -0.04153321 -0.0275937 0.023688033 -0.025903793
0000b0 8f 7c 61 3d a8 06 63 bd e8 5f 4d bd 5c ec 26 bd
       0.05505043 -0.05542627 -0.05014029 -0.040752754
0000c0 37 a5 e5 3c 4e 78 09 3d ba 9b dd bb 08 30 64 3c
       0.028032882 0.033561997 -0.006762949 0.013927467
0000d0 b1 9c 71 3c fc 4e d3 bb 52 b8 24 bd 6d bb 20 bd
       0.014746831 -0.0064486247 -0.040214844 -0.039241243
0000e0 15 71 5b 3d d1 4c 34 3d 75 ed a3 3c 9b a4 a4 3d
       0.05357464 0.04401857 0.02001069 0.080392085
0000f0 5e 07 e4 3c 90 01 49 bb c6 88 4b 3c ca 9f 2e 3c
       0.027835544 -0.0030671097 0.012422746 0.010658214
000100 e1 07 50 3d ee b2 8d 3d 6f c7 9b 3d 19 e2 77 3c
       0.050788764 0.06918894 0.07606398 0.0151295895
000110 35 b9 81 bc 94 fe c9 3c ba 5d ef 3d f3 a0 c1 3d
       -0.015835384 0.024657525 0.11687799 0.09454527
000120 69 b9 06 3d 5c 1a 46 3c 84 51 23 3d 7c 57 8e ba
       0.032891665 0.0120912455 0.03987266 -0.0010859813
000130 5e 5e b8 3c 20 59 ea 3a f4 b3 e9 bc ee fd 1f bd
       0.022505935 0.0017879345 -0.028528191 -0.039060526
000140 b3 33 f9 3b 73 d3 df bc 33 52 64 bd 8b e8 3e bd
       0.00760504 -0.027322507 -0.055742454 -0.04660849
000150 6a 34 e3 bc ec 53 81 3c 65 28 93 bc 8e 5f d5 3c
       -0.027734954 0.015787087 -0.017963598 0.02604654
000160 c3 00 b1 bb d7 8e b7 3c f1 16 0b 3d 09 d6 85 3b
       -0.005401702 0.022406979 0.033957426 0.004084353
000170 cb 5b 9f 3d 59 0b 7f 3d 40 db 67 3d 5a 64 34 3d
       0.0778118 0.06226668 0.056605577 0.044041015
000180 02 df 92 3c 67 54 29 3d 04 c3 a1 bb 6c 56 7f 3d
       0.017928604 0.041340258 -0.0049365778 0.062338278
000190 26 dd 54 bd 46 32 bc bd 2f c1 b1 bd 18 32 88 bd
       -0.051968716 -0.091892764 -0.08679425 -0.066501796
0001a0 81 73 8f bd d8 8f 9b bd 16 e2 a4 bd 69 b4 61 bd
       -0.070044525 -0.075957954 -0.08050935 -0.055103693
0001b0 5c 6b d9 bc f1 db 91 bd e0 b3 85 bd 5e 5c bc bd
       -0.02654045 -0.071220286 -0.06528449 -0.09197305
0001c0 54 42 4d bd 1b 3e 6b bd 61 5b 4d bd 02 3f 27 bd
       -0.050112084 -0.057432275 -0.050135974 -0.040831573
0001d0 0d e9 1c bd 76 b2 0d bd a1 87 84 bd 35 72 9c bc
       -0.038308192 -0.03459402 -0.06471182 -0.019097427
0001e0 b6 9c 7d bd 21 54 76 bd 7a 8d 03 bd c2 b6 db bc
       -0.06191703 -0.060138825 -0.032117344 -0.026820544
0001f0 6a 5e 4a bb fb 1f 0a bb cf 87 dd bb e5 3b c7 bc
       -0.003087903 -0.002107619 -0.0067605744 -0.024320552
000200 63 a4 33 bc e7 f8 0d 3d 38 6e 22 bb 9f d4 05 bb
       -0.010964486 0.0346612 -0.0024784934 -0.0020420922
000210 d4 7c 3a 3c 88 c8 01 3d dc 07 03 bd 44 d9 ec bb
       0.0113823 0.031685382 -0.031989917 -0.0072280485
000220 52 4c a8 3c 3b 42 07 3c 59 18 e6 bc 44 71 d6 3c
       0.020544205 0.008255537 -0.028087782 0.026177056
000230 12 08 e1 bc 03 2e 28 3c 2c 90 00 3d 85 f0 30 bd
       -0.027469669 0.010264876 0.031387493 -0.043198127
000240 ec c9 90 3c 3d bd 08 3c 20 d5 61 bc dc c2 b4 bc
       0.017674409 0.008345899 -0.013783723 -0.022065572
000250 13 13 45 bb 4e c6 09 3d a1 18 f8 bc 84 52 b8 bd
       -0.0030071184 0.033636384 -0.030285181 -0.090001136
000260 d8 42 73 bd 93 26 81 bd fb df b8 bc 9f 24 70 bd
       -0.05938992 -0.063061856 -0.02256774 -0.058628675
000270 e5 27 71 bd 5b c2 3c bd 1b aa 76 bd 6b 38 81 bc
       -0.058875937 -0.04608379 -0.06022082 -0.015773972
000280 7c 37 db bb e6 a3 92 bd a8 ed dc bd 5d bc bc bd
       -0.006689964 -0.071601674 -0.10787517 -0.09215615
000290 b9 1a 81 bd 31 58 6c bd 5d 96 a7 bd 5c 23 9b bd
       -0.06303925 -0.057701293 -0.081829764 -0.07575104
0002a0 68 a0 a1 bc 0c 0e 13 bd 41 d1 bc bc 59 ea 6c bd
       -0.019729808 -0.035902068 -0.023048999 -0.05784068
0002b0 f4 24 03 bd a5 a4 11 bd ad 6e ff bc 04 30 97 bc
       -0.032017663 -0.035557408 -0.031180704 -0.018455513
0002c0 e3 24 63 3c 21 24 80 3d 24 cf 59 3d b4 91 b4 3d
       0.013863775 0.06256891 0.05317606 0.08816853
0002d0 6d 87 6e 3d b2 3b 01 3d 0c 8c 01 3d 6c 0b 07 3d
       0.05823462 0.03155107 0.0316277 0.032969877
0002e0 dc ed b9 3c aa e2 01 3d 8c 49 c4 3c 93 c9 5b 3d
       0.022696428 0.031710304 0.023960851 0.053659033
0002f0 1e 7a 8a 3d 6a b4 00 3d dd a3 f2 3c 20 38 2e bd
       0.06761573 0.031422056 0.029619152 -0.042533994
000300 13 4f d2 b9 49 e6 f1 bc e5 9d 09 bc 99 a1 8d 3c
       -0.00040113236 -0.029528754 -0.008399461 0.01728897
000310 c8 f9 7f 3d 94 95 c4 bc 34 a4 1a 3d a3 e8 8d bc
       0.06249407 -0.023997106 0.037754253 -0.017322844
000320 97 9c 8d 3d 23 5c 4f 3c 45 0d 37 3d 1b ee 92 3c
       0.06914633 0.012656244 0.04469039 0.017935803
000330 5d 9d f2 bc 60 96 00 3d 8f df 9c bb a7 cc 0d 3d
       -0.029616052 0.03139341 -0.0047873924 0.034619
000340 fa 46 a3 3c b9 24 95 3c 2c c2 4c 3d 74 8a 6f 3c
       0.019931305 0.018205987 0.049989864 0.014620412
000350 e5 fc df 3b c7 36 c6 bc 95 e8 38 3c c0 cd 3a 3d
       0.0068355673 -0.024196042 0.011285921 0.045606375
000360 e7 e6 31 3d 71 6b 42 3d a4 fe 85 3c 1f 91 67 3c
       0.043433096 0.047465745 0.016356774 0.014133721
000370 5e f4 f0 3c e9 9a 10 3c 55 74 5a 3d 2a 2c 05 3d
       0.029413398 0.008825996 0.0533336 0.03251282
000380 e0 12 54 3a ec 49 1a bd 50 00 9e bc b1 86 53 bc
       0.0008089971 -0.037668154 -0.019287258 -0.012910531
000390 b1 d1 68 3b be 46 91 bc 99 af 18 bd c5 4f f4 bc
       0.0035525376 -0.017733928 -0.037276838 -0.029823193
0003a0 bd d2 68 bd d7 6e c7 bb 58 89 60 bc a2 d0 16 3c
       -0.0568416 -0.006086211 -0.01370462 0.009205015
0003b0 df 6c 80 bd 93 6f 0b bd 0e 7c 9a bd f9 0a e7 bc
       -0.062707655 -0.034041952 -0.07543193 -0.028203474
0003c0 6c 41 cc bc cb 67 87 3c ed 2f c8 3c 23 4b 1d bb
       -0.02493354 0.016528985 0.024436915 -0.0024001084
0003d0 df bd 81 bc 8b d7 92 3b 60 f7 5c 3a e0 db 9e bc
       -0.015837608 0.004481261 0.0008429196 -0.019391954
0003e0 34 6a 80 bb 0d 48 53 bd 26 11 ad 3c ec 83 90 3d
       -0.0039189104 -0.051582385 0.021126341 0.07056412
0003f0 cd 15 9f 3d 51 5f 12 3d aa 07 4b 3d 95 fb e8 bc
       0.0776783 0.035735432 0.049567856 -0.028440276

conv2.bias f4 [32]
000000 15 e6 8c bd b7 6e 20 be 64 4f ad bc 85 48 1f bd
       -0.06879822 -0.15667234 -0.02115602 -0.03888752
000010 f1 9d 90 bd ce 40 d7 bd 45 79 07 be 51 cf b0 bd
       -0.07061375 -0.105104074 -0.13229854 -0.086332925
000020 27 30 8c bb 7e 40 97 bd 12 02 5f bd 2c 09 35 bd
       -0.004278201 -0.07385348 -0.054445334 -0.0441982
000030 04 a4 ba bd b0 21 54 bc 3d 92 1a bd a5 94 9f bd
       -0.09113315 -0.012947485 -0.03773712 -0.077920236
000040 67 02 53 bd c0 67 28 be 2b 74 9c 3c 76 b7 0a bd
       -0.051515963 -0.16445827 0.019098362 -0.03386637
000050 58 25 87 bd c0 ef 31 bd 65 56 de bd 87 79 a9 bd
       -0.0659892 -0.043441534 -0.10856322 -0.082751326
000060 8b 77 c5 bb a4 64 57 bd 5a ee cf 3c c1 e4 c3 bd
       -0.0060262135 -0.052586213 0.02538221 -0.09565116
000070 e3 6e 62 bd 80 37 c3 bd 47 d5 03 bc 6b 4f 99 bc
       -0.05528153 -0.0953207 -0.008046455 -0.018714627

batch2.weight f4 [32]
000000 ba 93 7f 3f 6f bc 8b 3f fa 43 83 3f fa 3b 73 3f
       0.9983479 1.091688 1.025512 0.9501339
000010 8a 01 81 3f c7 99 81 3f 82 c0 85 3f ba d2 81 3f
       1.0078595 1.0125054 1.0449374 1.0142434
000020 a4 ec 75 3f 5b 3d 7b 3f 10 bd 7a 3f c7 fa 7c 3f
       0.9606421 0.98140496 0.97944736 0.98820156
000030 16 af 83 3f d7 6c 71 3f cc 4a 80 3f e5 b2 77 3f
       1.0287807 0.943067 1.0022826 0.96757346
000040 c9 d6 7f 3f 63 49 82 3f 25 c7 73 3f 7b b0 83 3f
       0.9993711 1.0178646 0.95225745 1.0288233
000050 d4 ca 74 3f f6 80 82 3f 01 2f 8d 3f 4f 5d 6a 3f
       0.9562199 1.0195606 1.102997 0.9154863
000060 14 20 80 3f ff 75 86 3f 65 12 76 3f f1 51 80 3f
       1.000979 1.050476 0.9612182 1.0025007
000070 d2 68 78 3f 46 f7 7e 3f 7c e2 81 3f 58 3f 7b 3f
       0.97034943 0.9959606 1.0147243 0.9814353

batch2.bias f4 [32]
000000 0e 6d ac 3d 4b 0b 1b 3d 10 a0 19 bd ae 18 09 bd
       0.08419238 0.037852567 -0.037506163 -0.033470802
000010 15 2d 01 3d ca 8b d7 3d a5 07 b4 3d c4 fd ac bd
       0.031537134 0.105247095 0.087905206 -0.084468395
000020 1f cd 01 3c 9e 90 8a bd 81 97 88 bc 2d 8c a3 bc
       0.00792244 -0.06765865 -0.016673805 -0.019964302
000030 f8 3e b7 bd f0 0f db bd 04 28 e3 bc 46 54 7f 3b
       -0.08947557 -0.10696399 -0.027729042 0.0038960143
000040 be 53 21 bd a3 95 d6 3d 04 1c 03 3d 4d 17 5d bc
       -0.039386503 0.1047776 0.03200914 -0.013494325
000050 0d 3e 2a be 45 d5 ec 3d 67 dd 6e 3d 63 90 30 be
       -0.16625233 0.115641154 0.058316614 -0.17242579
000060 9a e0 b4 bd 28 7c 63 bd 63 ac 8e 3c 80 fd 40 3e
       -0.08831902 -0.055538327 0.017416185 0.18846703
000070 31 6c d3 bd 5e 89 af bd f5 6c a5 bd 26 fd 16 3d
       -0.1032337 -0.085711226 -0.080774225 0.036862515

batch2.running_mean f4 [32]
000000 90 17 81 3f d7 e3 0a 3f 16 1f c5 3f 37 ab ad 3f
       1.0085316 0.54253906 1.5400112 1.3567876
000010 cf 25 5a 3f 4d 17 97 3f e3 41 13 3f 12 2f 15 3f
       0.8521394 1.1803986 0.5752241 0.5827495
000020 e2 bd 55 3f d4 a0 82 3f 44 cc 3c 3f 02 5f 3d 3f
       0.83492863 1.0205331 0.73749185 0.73973095
000030 2c dc 2d 3f 3c 57 33 3f 91 a1 87 3f a1 40 59 3f
       0.6791408 0.70054984 1.0596181 0.8486424
000040 8c f4 43 3f 60 b5 1f 3f aa c5 8e 3f d4 7e 95 3f
       0.76545024 0.6238613 1.1154072 1.167933
000050 c5 c7 03 3f 28 ad 62 3f 9b c9 14 3f 20 aa 3c 3f
       0.514767 0.88545465 0.58120126 0.7369709
000060 84 b6 84 3f 5c e9 34 3f 01 89 95 3f a8 f2 27 3f
       1.0368199 0.7066858 1.1682435 0.6560464
000070 d2 1e 33 3f c4 8c 8d 3f c9 9e 73 3f bc ce 82 3f
       0.69968903 1.1058583 0.9516416 1.021934

batch2.running_var f4 [32]
000000 fc df 57 40 6d 64 af 3f 93 8c ab 40 18 6c 60 40
       3.373046 1.3702523 5.36091 3.5065975
000010 f8 3a 28 40 4c 8d 56 40 65 21 96 3f 1d 47 f4 3f
       2.6285992 3.352374 1.1728941 1.9084202
000020 df 54 3a 40 d1 46 1a 40 a6 ec 87 3f 8b 9f 2a 40
       2.9114301 2.4105723 1.0619094 2.6659877
000030 51 47 05 40 2d f6 fe 3f 85 84 7c 40 32 7f 38 40
       2.0824778 1.9918877 3.9455884 2.8827634
000040 8b f9 e3 3f 82 dc d3 3f 4e cd 6b 40 3d f2 2d 40
       1.781053 1.6551669 3.6844058 2.71791
000050 34 e0 98 3f 86 4a d1 3f 38 dc df 3f e6 bb 26 40
       1.1943421 1.6350868 1.748908 2.6052184
000060 e4 86 20 40 f6 f1 31 40 7f ef 35 40 17 e3 74 3f
       2.508233 2.7803931 2.8427427 0.9565901
000070 1c 66 cb 3f f2 32 43 40 eb 1a 14 40 85 48 84 40
       1.5890536 3.0499845 2.314143 4.1338525

conv3.weight f4 [64, 32, 3, 3]
000000 5e a6 34 3d 3c 68 97 3d 75 02 55 3c ac 19 16 3d
       0.044103973 0.07392928 0.013001074 0.036645576
000010 5b c6 95 bc 41 6c 23 3d d3 57 f8 3c 53 9b fb 3c
       -0.01828306 0.03989816 0.030315315 0.030713713
000020 d7 57 85 bd 7d 2b e9 3c f3 0a 91 3d 52 0e ef bb
       -0.06510895 0.02846312 0.070821665 -0.0072954083
000030 24 7c 48 bd 67 85 dc ba 29 14 21 bd 24 9b 63 bd
       -0.048946515 -0.0016824425 -0.039325867 -0.055567876
000040 0d 24 e6 bc ba a8 9e bd df 8c 70 3d 6c 09 06 3d
       -0.028093362 -0.07747026 0.058728095 0.03272383
000050 0c e9 6c bd 01 76 3f 3d ba 2d a6 bc e6 d3 09 bc
       -0.05783944 0.046743397 -0.020285476 -0.008412337
000060 24 e1 52 3a 27 11 24 3c 82 09 a7 bb fe b4 a9 bc
       0.0008044413 0.010013855 -0.005097569 -0.020716187
000070 b9 ac ab 3c 21 8a f8 3c 8b 9d 3f b9 9c 6d 30 3d
       0.020956384 0.030339302 -0.00018273869 0.04307328
000080 6a eb 4f bd c1 5d 4b bb 57 f1 27 3d c1 7c d5 3c
       -0.050761618 -0.0031031223 0.041001644 0.026060464
000090 b9 0c bf bd c0 3e 5c bd d5 de a6 bd 94 92 cd bc
       -0.093285985 -0.05377078 -0.081479706 -0.025094308
0000a0 c8 cc a0 3a de cd 4a 3c 23 96 eb bc 6c 81 4d bc
       0.0012268061 0.012378184 -0.028758114 -0.012543064
0000b0 79 9a a1 3d 13 16 ab 3a 68 34 07 bc 56 61 f7 bd
       0.078907914 0.0013052843 -0.008252241 -0.12079112
0000c0 c2 b3 30 bc ec 65 90 ba 85 e0 71 3c e5 ae 9d bc
       -0.010785045 -0.0011016703 0.014763002 -0.019248435
0000d0 5b 3e 63 bc 51 ad c7 3c 96 3d b9 3c f8 06 87 3b
       -0.013869847 0.024374636 0.022612374 0.004120704
0000e0 78 f6 8a bd 7d 11 48 3d 2f 14 3a 3c 80 69 8d 3c
       -0.067852914 0.048844803 0.011357351 0.01726222
0000f0 cc 5a 70 3d 7f 39 3d bd 05 bb f8 bd 5e 37 c7 39
       0.05868034 -0.04619741 -0.12145046 0.0003799749
000100 9c ba 6a 3d c3 2f 0b 3d 99 ff 4c bd 95 a3 82 3c
       0.05730687 0.033981096 -0.050048444 0.015947143
000110 ab ed 82 3d ac e8 73 ba 22 50 80 bd 96 d2 65 bd
       0.06392988 -0.0009304385 -0.06265284 -0.056109034
000120 10 6e 42 3d 1b 45 34 3d 2b 51 60 bc 3f f2 26 bd
       0.047468245 0.044011217 -0.013691227 -0.040758368
000130 7c 22 b7 bc 7c 9c 68 bc 0f d3 13 bd 63 0a c7 bc
       -0.02235531 -0.014197465 -0.036089953 -0.024296945
000140 70 dc a4 bd bd e2 83 bd e0 9f d0 bc 04 ef 41 bb
       -0.080498576 -0.06439731 -0.02546686 -0.0029591927
000150 1a 3c 4e bd cd 14 54 bd ad bc 92 bd db f1 a5 ba
       -0.050350286 -0.05177765 -0.07164893 -0.001266058
000160 d6 20 c2 bb d0 85 83 bd 73 f0 67 3c 75 10 96 3c
       -0.0059243245 -0.06422007 0.014156449 0.018318394
000170 70 2a 91 3c 8a d7 ab bc cc 5e 66 3d 78 d4 98 3c
       0.017720431 -0.0209768 0.05624275 0.018656
000180 7c b2 8f 3c ae ed 39 3c 28 60 9a 3b e4 c4 46 bc
       0.017541163 0.011348171 0.0047111697 -0.012131903
000190 98 05 b0 bc 5e 1e 0b 3c a8 f4 1c bd a4 45 80 bd
       -0.021487042 0.008491127 -0.03831926 -0.06263283
0001a0 ce 01 37 3c c4 d8 55 bd 57 bc b0 3c b5 ce 70 bd
       0.011169864 -0.052208677 0.021574182 -0.05879088
0001b0 c4 77 e3 3d 63 d4 03 3d 54 2e 31 3c 5f 2a 52 3d
       0.11106828 0.03218497 0.010814268 0.05130994
0001c0 c3 4d 6e 3c 09 f1 51 3d 76 de 3c 3d da 58 ab bc
       0.014544907 0.05125526 0.046110593 -0.020916391
0001d0 b5 61 7a bd 48 5f 66 3d 59 4d fc 3b f8 81 c8 bd
       -0.061128337 0.05624321 0.0076996502 -0.097904146
0001e0 ec 1f b1 bc 9c f5 3e bd e7 30 19 be 7a 46 9b bc
       -0.021621667 -0.04662095 -0.14960061 -0.018954504
0001f0 e9 6e 02 bd 33 b9 e2 bd 19 a0 06 bd c9 54 6c bd
       -0.031844053 -0.1107048 -0.032867525 -0.057698045
000200 04 f4 ba bc d6 44 2c 3d 5c 75 de 3c 6a 2b c7 bb
       -0.022821434 0.042057835 0.02715557 -0.0060781734
000210 88 b2 12 3c 69 12 c2 bc 0e a1 16 bd 2c ca 06 bd
       0.008953698 -0.02369042 -0.036774687 -0.03290765
000220 ec 56 e5 3c e6 6a ec 3c 35 28 b3 bc 4d 91 26 3b
       0.02799555 0.028859567 -0.021869758 0.0025416196
000230 3e 50 15 bd 39 17 c3 bd 11 69 c5 bd c4 7e 3a bd
       -0.036453478 -0.09525914 -0.096391805 -0.04553105
000240 0e be 81 bd dc 25 ae bd bc 48 a6 bc cb fa 03 3b
       -0.06335078 -0.08503315 -0.020298354 0.0020138498
000250 b3 29 3d bc 3b 09 6c bd 85 0e 7d bc b9 10 15 bd
       -0.011545586 -0.05762599 -0.015445356 -0.0363929
000260 d6 cb f0 3c cb c9 19 bc a9 83 6a 3d 6f 3b 7e 3c
       0.029394072 -0.00938649 0.057254467 0.0155171
000270 0e f2 b9 3c 20 bf 79 3d cf 6d 87 3d 77 46 90 3c
       0.022698428 0.060973287 0.06612741 0.017611725
000280 5c 32 2d bd 77 84 bd 3d 36 ea 11 be fe ba e6 bd
       -0.042284355 0.09253781 -0.142495 -0.11266135
000290 34 90 0f bd ea 10 28 bc 25 05 4a bd b2 60 8f 3a
       -0.035049632 -0.010257939 -0.049321312 0.0010938852
0002a0 dc ef 24 bc 5a a7 ac bb c5 d2 81 3c a7 03 1a 3d
       -0.010066953 -0.0052689733 0.015847573 0.03760114
0002b0 af 23 7f bd 5e 7e 87 3d 54 2a 43 3d 56 14 1f 3d
       -0.06228989 0.066158995 0.04764779 0.038837753
0002c0 2c 58 d3 bc 09 3c 2c bd f4 ce 3f bc 48 91 a8 bd
       -0.02579888 -0.04204944 -0.011707056 -0.08230835
0002d0 ea d4 cb ba d9 9d cd bc a9 e7 20 b9 7c 73 04 3d
       -0.0015551124 -0.025099682 -0.00015345089 0.032336697
0002e0 8d e2 e2 3c 03 e9 8b bd b5 f0 cf 3d 42 91 af 3b
       0.027695918 -0.06831553 0.10153333 0.0053578923
0002f0 56 3d 2c bd 8a 88 dc 3c dc 1b a8 bc 33 08 b1 bd
       -0.042050682 0.026920576 -0.020521097 -0.08644142
000300 55 82 8d bd 87 5f 8a bd 14 5e 29 bd d1 f5 86 bb
       -0.069096245 -0.06756502 -0.041349486 -0.004118659
000310 57 e1 6a bb f4 38 06 39 a6 a1 3e bd b1 a1 38 3d
       -0.003583988 0.00012800453 -0.04654088 0.045076076
000320 ca 37 af bb 10 b6 8f bd ed 04 a6 bd 45 44 aa bd
       -0.0053472267 -0.070171475 -0.08106408 -0.08313803
000330 7d b5 a3 bd bc f5 76 bc f8 78 7d bd bd 9f f5 3c
       -0.079936005 -0.015073236 -0.061882943 0.029983396
000340 e3 bf 4d 3d c6 b5 61 3d be bd f9 bc 6d d9 0e bd
       0.050231826 0.055104993 -0.030485984 -0.034875322
000350 ae 7a a6 3c d0 70 ee 3b be 0d 14 bd f1 4e 8a bd
       0.02032217 0.007276632 -0.036145918 -0.06753338
000360 64 f5 00 3d a5 2f 99 3d e5 e6 c9 3d fa 90 30 3b
       0.031484023 0.074797906 0.09858493 0.0026941882
000370 4f d5 3f 3d d3 f7 70 3d 89 f6 2f 3c 93 19 32 bd
       0.046834286 0.058830094 0.010739931 -0.04348142
000380 e1 1e e3 3c 13 c5 bb 3d aa 8e 21 3c 5a fe 74 bd
       0.027724685 0.09168448 0.009860674 -0.05981288
000390 8f 08 36 3d 72 f0 c1 bc b1 86 2d bd 1d 96 ca 3c
       0.044441756 -0.023674224 -0.04236478 0.024729783
0003a0 2f 98 7c bb 72 4a e9 bd 82 fe ba bd 6f 84 02 be
       -0.0038542857 -0.113911524 -0.09130575 -0.12745832
0003b0 a8 19 a4 bd 30 b3 23 3c d3 d7 00 bc d2 83 a4 bd
       -0.08012706 0.009991452 -0.0078639565 -0.08032955
0003c0 90 ad 18 bd e2 20 f5 3c 78 c4 46 3d 57 99 db 3a
       -0.037274897 0.029922906 0.04852721 0.0016754073
0003d0 64 a4 1c 3d 48 91 e1 3d 92 50 47 3c cb d6 6e 3d
       0.038242713 0.11014038 0.012165206 0.05831031
0003e0 b5 b2 38 3d 68 55 cd 3d fe 2e 86 3c fd 4f 1a 3d
       0.045092303 0.100260556 0.01637983 0.03767394
0003f0 55 0c 46 bd 11 94 67 3d 23 31 20 3c b2 b7 03 3c
       -0.048351604 0.05653769 0.00977734 0.008039402

conv3.bias f4 [64]
000000 20 6e 74 bd 45 58 f5 bd 43 0c 8a bd 02 90 6a bd
       -0.059675336 -0.11979727 -0.0674062 -0.057266243
000010 0a 0b 24 be e1 2c 12 be 91 4f 4b 3d 1c 30 09 bd
       -0.16019836 -0.14274932 0.049636427 -0.033493146
000020 aa 4e df bd 43 07 38 bd 18 40 b9 bc 88 d3 bf bc
       -0.10903676 -0.0449288 -0.02261357 -0.023416296
000030 a8 e4 19 be 75 1c 5b bd d8 14 c9 bd 0e 96 36 3a
       -0.15028632 -0.053493936 -0.09818429 0.0006965109
000040 11 cf 01 bd 21 69 f0 3b 4d 14 84 bd f2 75 4d bd
       -0.031691615 0.007336751 -0.064491846 -0.05016131
000050 c6 f3 16 bd 6a 11 82 bc 89 5d 83 bd fe 62 c9 bd
       -0.036853574 -0.015877444 -0.06414325 -0.098333344
000060 81 59 50 3c d3 c3 2b be 16 bc 9c bd e2 54 97 bd
       0.012716652 -0.1677392 -0.07653062 -0.07389237
000070 e2 5b 7a bd 44 a6 9b bc bf ad b7 bd 2a a5 a0 bd
       -0.061122783 -0.01900018 -0.08968686 -0.078440025
000080 b1 70 bd bd de ae d3 bd 39 0d 67 bd a8 9d 95 bd
       -0.0925001 -0.10336088 -0.056409094 -0.07305461
000090 b3 63 15 bc 5c 2f 4d bd 7c 64 0f be ae a0 a8 3c
       -0.009118008 -0.050093994 -0.14003175 0.02058443
0000a0 ae 83 65 bd ca 66 21 3d 43 fd f4 bd 0c 26 00 be
       -0.056033783 0.039404668 -0.11962368 -0.12514514
0000b0 13 51 03 3d fc 23 78 3c 73 97 65 bd 56 cc 05 be
       0.03205974 0.015145298 -0.056052636 -0.13066229
0000c0 39 55 4c bd 04 1f 85 bd 83 23 46 bc 4d 6f 4d bd
       -0.049885962 -0.065000564 -0.012093428 -0.050154973
0000d0 a9 d4 fa 3c 4a bb 5d 3c ba 59 aa bc f3 aa f7 bc
       0.030618982 0.013533423 -0.020794738 -0.030232882
0000e0 c2 55 1b be 2a 51 72 3d ee 0f 74 bd de 67 db bd
       -0.15169433 0.059159435 -0.059585504 -0.107131705
0000f0 38 b1 d0 bd 29 85 cf bd 4d 25 93 3c bb 04 94 bd
       -0.10190052 -0.1013282 0.017962122 -0.07227465

batch3.weight f4 [64]
000000 da 5c 86 3f e8 1e 80 3f 29 28 7c 3f 82 18 89 3f
       1.0497086 1.0009432 0.9849878 1.0710604
000010 ea 9b 7f 3f f6 72 80 3f df e5 7b 3f 5e e3 75 3f
       0.9984728 1.0035083 0.9839763 0.9605006
000020 da 8d 64 3f 52 0a 70 3f d0 de 67 3f 3e 64 8b 3f
       0.8927895 0.9376575 0.9057436 1.0889966
000030 88 af 61 3f f3 4a 7d 3f 28 95 70 3f 3a 2b 88 3f
       0.88158464 0.9894249 0.93977594 1.0638192
000040 dd c9 80 3f 87 5f 84 3f be d0 82 3f 20 26 82 3f
       1.0061604 1.0341653 1.0219953 1.0167885
000050 46 f8 60 3f 37 5c 6e 3f ce 9c 7a 3f 01 5d 7e 3f
       0.87878835 0.9310946 0.97895515 0.9936066
000060 40 b3 64 3f b3 e4 91 3f 3a 65 81 3f 95 35 80 3f
       0.89336014 1.1397918 1.0109017 1.0016352
000070 33 da 83 3f b5 50 6a 3f ba 6e 77 3f 56 54 8d 3f
       1.0300964 0.915294 0.9665333 1.1041362
000080 f6 34 7e 3f cc 12 7b 3f 70 2b 7d 3f 1e 01 66 3f
       0.9929956 0.98075557 0.98894405 0.89845455
000090 79 17 75 3f bb 2c 59 3f 21 74 8a 3f 8c 8b 7b 3f
       0.9573894 0.8483388 1.081669 0.98259807
0000a0 13 06 6d 3f ac 1f 7c 3f 2c d6 68 3f 16 ec 75 3f
       0.92587394 0.9848583 0.909518 0.96063364
0000b0 69 a2 6b 3f d6 eb 68 3f b3 34 6d 3f 9f 29 92 3f
       0.92044693 0.9098486 0.9265854 1.1418952
0000c0 43 d2 7c 3f 75 5d 80 3f a4 69 6e 3f 41 9a 68 3f
       0.98758334 1.0028521 0.93129945 0.9086037
0000d0 b6 58 82 3f 9e 58 83 3f 95 ee 81 3f 45 06 86 3f
       1.0183322 1.0261419 1.0150934 1.0470663
0000e0 fd bc 6b 3f b4 f8 88 3f b6 7b 80 3f be fe 7f 3f
       0.9208525 1.0700898 1.0037754 0.9999808
0000f0 5c b0 6e 3f 0d 16 7e 3f ac e9 5a 3f 27 9a 4f 3f
       0.93237853 0.99252397 0.85512805 0.8109459

batch3.bias f4 [64]
000000 c9 93 18 3e 21 94 40 3c e9 dc 48 3d f7 3f a6 3e
       0.14900126 0.011754067 0.0490388 0.32470676
000010 2d 41 f9 3d 1b 06 a6 bd bc 73 57 be c8 cc 2b 3e
       0.121706344 -0.08106633 -0.21040243 0.16777337
000020 40 3c 88 3e e5 cc 5b 3e a5 d3 ff bd 92 69 1a 3e
       0.26608467 0.2146488 -0.1249154 0.15079334
000030 50 c5 2b 3e fb 2a 7f 3e ff 29 9b 3e 40 c5 97 3e
       0.16774487 0.2491874 0.30305478 0.29642677
000040 73 33 47 3e 85 15 c2 3d a7 39 2e 3e 49 fb 98 3e
       0.1945322 0.09476761 0.1701418 0.29879215
000050 62 8a da 3d 68 ce 16 3e 9b d8 a2 3e 03 c3 9f 3e
       0.10670926 0.14727175 0.31805882 0.3120347
000060 da ea 15 3d 49 d3 c3 3e 25 2f 89 3e 43 af 1f bc
       0.036600925 0.38247135 0.2679378 -0.0097463755
000070 b6 0a 9b ba b9 11 58 bd 6b e1 6c 3e 71 42 98 3e
       -0.0011828754 -0.052751277 0.23132865 0.2973819
000080 cb b9 8c bd c7 20 ea bd ca 51 4b 3e 68 b4 1e bd
       -0.06871375 -0.11432033 0.19855419 -0.038746268
000090 e5 53 30 be 54 9b 4c be 6c 5b 4e 3e fd 4d 55 3e
       -0.17219503 -0.19981128 0.20152062 0.20830531
0000a0 fc 75 0d 3e ec 62 8e 3a ee f6 1f 3e 88 c1 e6 bd
       0.13814539 0.0010863221 0.1562154 -0.11267382
0000b0 d2 16 43 3e da 45 34 be bf 1d 8a 3d 84 dd 1b bd
       0.19051674 -0.17604771 0.06743955 -0.03805305
0000c0 26 47 e3 bc bb a4 2d 3e 5e a1 a2 3c 21 92 d0 3d
       -0.027743887 0.16957371 0.019852336 0.10184122
0000d0 82 55 b3 3e b3 d2 aa 3e fe 42 14 3d 2c 11 a4 3d
       0.35026175 0.33363876 0.0361967 0.08011088
0000e0 69 48 96 3d cb 20 68 3e 4c 80 c2 3d 81 71 6b 3e
       0.0733803 0.2266876 0.09497127 0.22992517
0000f0 0e 18 c5 3e 6f 3c d4 bc cd 43 e5 3d 3d 6e 25 be
       0.38494915 -0.025907723 0.111945726 -0.16155334

batch3.running_mean f4 [64]
000000 d6 2b 1d 3f 18 86 9f 3e 21 b7 d0 3e 2b 2d c4 3e
       0.61395013 0.31156993 0.40764716 0.3831571
000010 ad 58 e2 3e b1 43 c7 3e d7 56 e6 3e fe 65 1d 3f
       0.4420828 0.38918832 0.4498813 0.6148375
000020 99 38 3d 3f 51 6d ea 3e 08 f2 51 3f 54 72 b5 3e
       0.73914486 0.45786527 0.82009935 0.35438788
000030 98 17 e8 3e 76 32 cb 3e 63 91 a1 3e db f1 d2 3e
       0.453305 0.39686936 0.31556234 0.41200146
000040 bd 08 e7 3e 70 f2 50 3f d7 75 1c 3f 9e bf 04 3f
       0.45123854 0.8161993 0.6111731 0.51854885
000050 b7 21 ea 3e 7a b0 53 3f d3 e4 6a 3f 7c 4b e3 3e
       0.45728847 0.82691157 0.9175541 0.44393528
000060 20 05 b9 3e c4 83 b6 3e ce f2 18 3f 56 9e cf 3e
       0.36136723 0.35647404 0.5974549 0.40550488
000070 b6 ff 28 3f 43 53 39 3f e0 cb 69 3f 39 73 e5 3e
       0.66015184 0.7239267 0.91326714 0.4481447
000080 b2 ae c3 3e a7 12 e9 3e 31 24 aa 3e 64 9d 0f 3f
       0.3821922 0.45522043 0.33230737 0.56099534
000090 5c 08 9e 3f 8b 59 3d 3f f3 e5 cc 3e e9 4f 2f 3f
       1.2346301 0.73964757 0.40019187 0.6848131
0000a0 38 6c 2d 3f 1d a8 27 3f 0d 5f 68 3f 57 52 b8 3e
       0.67743254 0.65490896 0.90770036 0.3600032
0000b0 e9 cb cf 3e 97 21 e6 3e 03 f1 38 3f b3 22 93 3e
       0.4058526 0.44947502 0.72242755 0.2873741
0000c0 13 4d ef 3e 52 d4 1d 3f a4 2c f9 3e 2e 01 35 3f
       0.4673849 0.616521 0.4866687 0.70704925
0000d0 61 ea 32 3f 09 84 b8 3e 34 7b 87 3f a8 a2 4d 3f
       0.69888884 0.36038235 1.0584474 0.8032632
0000e0 a6 df c9 3e 46 58 50 3f 1a 91 8b 3e 72 a2 84 3e
       0.39428443 0.81384695 0.2725914 0.25905186
0000f0 95 10 8f 3e ee 48 2c 3f c2 b5 f2 3f b2 a3 11 3f
       0.2794234 0.6729878 1.8961718 0.56890404

batch3.running_var f4 [64]
000000 5b e2 db 3f 7a d2 3e 3f 49 7a 2f 3f a1 d6 65 3f
       1.7178453 0.7453991 0.6854597 0.8978062
000010 d1 96 2b 3f e7 2d 2a 3f 34 fd 55 3f d1 6d c5 3f
       0.67027 0.6647629 0.8358948 1.5424138
000020 3c 95 af 3f 37 b0 39 3f fe 98 e6 3f 6f 58 2b 3f
       1.3717418 0.7253451 1.801544 0.66931814
000030 6c 4f 72 3f ce 03 66 3f 19 5c 18 3f 30 ed 41 3f
       0.9465244 0.89849555 0.5951553 0.75752544
000040 70 ad 53 3f 8f 27 b0 3f 3a ab d0 3f 3a f5 97 3f
       0.8268652 1.3762072 1.6302254 1.1871712
000050 1a 87 79 3f b1 df 19 40 bc c6 09 40 2f a2 5b 3f
       0.97471774 2.404278 2.1527548 0.8579435
000060 24 72 48 3f 09 8f 70 3f 43 7a c5 3f 11 8c 41 3f
       0.78299165 0.93968254 1.5427936 0.7560435
000070 80 7c 96 3f 3b a9 b1 3f c0 c3 21 40 f9 3d 7c 3f
       1.1756744 1.387977 2.5275726 0.9853206
000080 4d 47 2d 3f 8a aa 44 3f 98 19 1f 3f 4a 50 9e 3f
       0.6768692 0.7682272 0.6214843 1.2368252
000090 73 b1 1b 40 b4 f0 af 3f 69 80 70 3f 18 69 e0 3f
       2.4327056 1.3745332 0.9394594 1.7532072
0000a0 69 ef bf 3f 89 77 99 3f 45 e5 f7 3f ce 1b 2a 3f
       1.4994937 1.1989604 1.9366843 0.66448677
0000b0 1c 81 49 3f 47 3e 5b 3f 21 03 c8 3f 11 7e 1f 3f
       0.7871263 0.856419 1.5625955 0.6230174
0000c0 7a fd 70 3f 7f a4 90 3f 3c 70 61 3f a0 93 c9 3f
       0.94136775 1.13002 0.8806188 1.5748177
0000d0 a8 c8 aa 3f 65 9d 3b 3f 42 83 21 40 2e 32 e3 3f
       1.3342485 0.7328704 2.5236363 1.7749689
0000e0 28 e8 3c 3f 0b 0c ea 3f 5a 1a c9 3e 69 39 16 3f
       0.7379174 1.8284925 0.39277917 0.5868135
0000f0 7d e1 ea 3e 52 22 a8 3f fc bc 8c 40 bc df 91 3f
       0.4587516 1.3135474 4.3980694 1.1396403

conv4.weight f4 [64, 64, 3, 3]
000000 9d 3e a7 bd ae 69 91 bc 4e fa 05 bd 54 b1 b7 bc
       -0.081662394 -0.017750587 -0.032709412 -0.022423424
000010 92 39 3b bd 08 39 88 bd 56 dd 56 bd 9b e2 57 bc
       -0.0457092 -0.06651503 -0.052457176 -0.013176586
000020 f6 4f 95 bd fe 07 1d bd 14 ed 91 bd 42 a3 ed bc
       -0.07290642 -0.0383377 -0.07125297 -0.029008511
000030 ae db d6 3c 64 55 e6 3c 45 51 f1 3c 88 70 dd bc
       0.026227798 0.02811689 0.029457698 -0.027031198
000040 35 74 43 bc af cd 85 3b 02 a9 8f bb eb 2f 24 bd
       -0.011929561 0.0040833573 -0.004384161 -0.04008476
000050 1c 24 29 bb 7d b3 0b bb 82 6b a7 bc b6 e9 04 39
       -0.0025808876 -0.00213167 -0.020437006 0.00012675565
000060 8f a9 df bc af 67 dd bc 4b ed a7 bd 25 82 0b bd
       -0.027302532 -0.02702698 -0.08199557 -0.034059662
000070 60 33 15 3c 81 d7 b9 3b ea 3c 75 bd 93 f0 78 bd
       0.009106487 0.005671442 -0.059872545 -0.060776304
000080 b8 06 1d bd e8 db dd bd 8f 14 c1 bd 23 35 03 be
       -0.038336486 -0.108329594 -0.09427749 -0.12813239
000090 dd e4 c3 3c b7 8d 51 3b a0 49 b7 bc d6 c4 36 bd
       0.023912841 0.0031975338 -0.022373974 -0.04462131
0000a0 68 bf 6e bd ce fc 83 bc c8 2c c3 3a 68 f6 8d bc
       -0.058288008 -0.016111758 0.0014890665 -0.01732941
0000b0 2f bf de 3c 73 b9 cb bb 15 21 5d bc c8 8c 40 bc
       0.027190773 -0.0062171756 -0.013496657 -0.011752315
0000c0 93 5f 41 3c bc 06 34 bd 09 1e 45 3d 08 a6 c4 3d
       0.011802572 -0.043951735 0.048124347 0.096019804
0000d0 69 69 85 3d 33 da b5 3d 82 f4 f2 3c 42 db b3 bc
       0.06514246 0.08879509 0.029657606 -0.021955136
0000e0 a7 49 57 3d 93 0d 1c 3d 69 e4 b2 bc 16 4f a0 bc
       0.052560475 0.038098883 -0.02183743 -0.019568961
0000f0 db a4 9f bb fb 6e 45 3d 68 6d 0f 3d ac bf 48 3d
       -0.004871947 0.048201542 0.035016447 0.049010918
000100 75 05 6a 3d b1 26 cc bc 93 48 80 bd e3 6e 74 bd
       0.05713411 -0.024920793 -0.062638424 -0.059676062
000110 e2 91 a2 bd 06 f6 35 bd 3d 12 33 bd 0f 10 7f bc
       -0.07937981 -0.04442408 -0.043718565 -0.0155677935
000120 43 ae e7 bc 7b 09 21 bc 3b 7a 3b bd e0 5a 97 bd
       -0.028281337 -0.0098289205 -0.045770865 -0.0739038
000130 af c6 ae bd a2 7e a6 bd 6e ca b7 3c 28 97 2b 3c
       -0.0853399 -0.08129622 0.022435393 0.01047305
000140 f4 b5 35 bd af 7b 4c bd ce 8d c5 bd 3b 90 a9 bd
       -0.044362977 -0.04992264 -0.09646188 -0.08279463
000150 ba 97 85 bb b0 76 82 3b 57 24 91 3b 5d ab 7f bc
       -0.004076925 0.003981434 0.004429381 -0.015604821
000160 2f 7c a1 39 e9 05 8d bd 1b 21 43 3d 43 5a 04 3d
       0.00030800837 -0.06885893 0.047638994 0.032312643
000170 54 8d f3 3c d4 db 4b 3c 2d 41 9e bc 55 75 25 3d
       0.029730476 0.012442548 -0.019318188 0.0403951
000180 69 b9 b4 bc d2 ba 9d 3c bb 6c 18 3d 34 00 a4 3c
       -0.022061067 0.019254122 0.03721307 0.020019628
000190 65 87 13 3d 55 68 01 bd aa 17 5f 3c 81 d4 b9 bc
       0.036017794 -0.03159364 0.013616482 -0.022684338
0001a0 bc 70 0f 3d ce f0 12 3d 46 3c 98 3c 13 05 90 3c
       0.03501962 0.03587418 0.018583428 0.017580545
0001b0 ba c8 4d 3c 54 56 91 3d e5 e5 bb 3b 61 4c 3a 3c
       0.012560064 0.07096544 0.0057341927 0.011370749
0001c0 95 72 80 bd 0f 0d dd bb 27 4c 86 bd 11 6a 21 bd
       -0.06271855 -0.0067459415 -0.06557494 -0.039407793
0001d0 94 b1 ed bc 15 6e ef bb a0 40 91 bc e5 a0 3d 3c
       -0.02901534 -0.007306824 -0.01773101 0.011574005
0001e0 54 a8 2b bc c7 45 09 3d f5 16 3a 3c b5 b7 19 3b
       -0.010477144 0.03351381 0.011358012 0.0023455445
0001f0 e9 e7 03 3d 49 e8 87 3b a1 29 ab bc 4d da c2 bc
       0.03220359 0.0041475636 -0.020893874 -0.023785735
000200 40 f5 58 bd 1b 29 cc bc 5a 75 3a bc b3 6d 39 bd
       -0.052968264 -0.024921944 -0.011380518 -0.045270633
000210 11 de 52 bd f8 99 74 bd 10 b7 51 3c 09 81 24 bc
       -0.05148131 -0.05971715 0.012799993 -0.01004053
000220 3e 92 21 3d c1 b9 fe 3b fa ee d8 3b f6 b3 bb 3c
       0.039446108 0.0077736084 0.006620285 0.02291296
000230 d8 ee 2f 3c 92 0a 8f bc 1c 74 f0 3c cf 90 4a 3d
       0.010738097 -0.017461095 0.02935224 0.049454506
000240 04 75 c1 bc 4c b2 55 bd 2f 7c 97 bc 7d 34 a7 3a
       -0.023615368 -0.05217199 -0.018491833 0.0012756732
000250 15 55 07 bd 5a b4 46 bd 06 a2 ce bd d5 d6 b3 bd
       -0.033040125 -0.04851184 -0.10089497 -0.0878121
000260 60 f1 bd bd 1d 40 9e bd ab f0 d8 bc c4 2a a0 bc
       -0.09274554 -0.077270724 -0.026481947 -0.019551642
000270 ed 57 69 3c 4a 1c 16 bd 6e 50 8e bb 17 fa dd 3c
       0.014242155 -0.036648072 -0.004343084 0.027096791
000280 02 bb 55 bc 3d 58 47 bc 97 95 e5 bc fa c6 c9 bc
       -0.013045074 -0.012167034 -0.028025432 -0.024631012
000290 ce 2d 85 bd 20 7c 2c bd e7 71 6f bd 59 ab 86 bd
       -0.06502877 -0.042110562 -0.058458235 -0.06575651
0002a0 f3 18 81 bd b6 70 61 bb 71 e9 c4 3c 72 e7 04 be
       -0.06303587 -0.0034399456 0.024037095 -0.12978914
0002b0 4e a6 93 bd 4f 94 a8 bc af 56 06 bd 2c 7e 8f bd
       -0.072094545 -0.020578532 -0.03279751 -0.07006487
0002c0 35 4d ad 3c 9e fd 04 bd 01 b3 6a bc c6 65 b9 3a
       0.02115498 -0.03246843 -0.014324904 0.0014144711
0002d0 9d ec 02 bd 1c 0f b1 bc 7d 66 59 bc 10 d0 6e 3d
       -0.031963933 -0.02161365 -0.013269064 0.058303893
0002e0 ce 16 0f 3c 4b 77 86 3d 10 ac 2c 3d 2d 14 b8 3b
       0.008733464 0.06565722 0.04215628 0.0056176395
0002f0 a4 ff 3b 3d b5 fe 4d bc 7b 14 a8 3c f1 52 2f 3d
       0.045898095 -0.012572934 0.020517578 0.04280371
000300 6e 65 0d 3a 38 43 95 bc d1 87 b1 bc 44 ef fd bc
       0.00053938373 -0.018220529 -0.021671208 -0.03099788
000310 a1 89 d4 3c f2 4d 0c 3d 2d 1c dc bd 01 e1 a8 bd
       0.025944533 0.034254022 -0.107475616 -0.08246041
000320 5e 99 8d bd f8 e1 ff bd 57 75 2c bd b8 47 dd bb
       -0.06914018 -0.12494272 -0.04210409 -0.0067529343
000330 49 e6 e5 bc 01 f0 c2 bc f1 0d 1e 3c 73 ef 5f bd
       -0.02806391 -0.023796083 0.009646879 -0.054671716
000340 82 af 77 bd ab 95 5a bd 87 6a 24 3d b5 2f 7e 3c
       -0.06047011 -0.05336539 0.040140655 0.015514304
000350 7d 85 95 3c df bf f4 bc e2 3b fa bc 19 f5 0a bb
       0.018252129 -0.029876648 -0.030546132 -0.0021203218
000360 d6 9c 4b bb 98 95 8f 3c d3 8a 68 3d 42 d8 f5 3c
       -0.0031068823 0.017527387 0.056773018 0.030010346
000370 69 ea 1c 3d f5 a3 e9 3c 4c d4 d7 3c 28 e7 68 3c
       0.03830949 0.028520564 0.026346348 0.014215268
000380 42 da 96 bb e0 59 c6 bd bc 59 56 bc c2 bf 1b bd
       -0.004603655 -0.09685111 -0.013082918 -0.03802467
000390 54 30 4d bc 3f 0a ab bd d1 bd ea bd 33 17 b2 bd
       -0.012523729 -0.08351564 -0.11461986 -0.08695831
0003a0 84 c9 ad bd 89 a3 0e bd 82 f9 be b9 37 0b 8f bd
       -0.08485702 -0.034823928 -0.00036425522 -0.06984561
0003b0 31 40 1a bd 05 71 6c 3d 2b d8 da 3c 19 3b f9 3c
       -0.037658874 0.05772497 0.026714405 0.030423688
0003c0 2f 92 6d bc ff 4c 24 bd e1 1b 4d bd 15 5a ab 3d
       -0.014500185 -0.04011249 -0.050075416 0.08366791
0003d0 d2 35 66 3d 9e b2 61 3c 7c 67 09 bb a3 20 c2 3b
       0.05620367 0.013775496 -0.0020966223 0.0059243008
0003e0 38 cb 21 3d 59 ae 88 bd 37 38 d7 bc 89 87 23 bc
       0.039500445 -0.06673879 -0.026271923 -0.009981045
0003f0 4d a9 3e bd be f7 1a bc d9 a9 6a bc 4e c4 04 bd
       -0.046548177 -0.00945848 -0.014322721 -0.032413773

conv4.bias f4 [64]
000000 18 95 30 be db c7 02 be 57 32 eb bd 48 c9 ed bd
       -0.17244375 -0.12771551 -0.11484211 -0.11610657
000010 10 d5 97 bd ec db 7f bd ab a2 fb bd 15 f5 9c bc
       -0.07413685 -0.062465593 -0.12286886 -0.019159833
000020 98 1c ee bd e4 ea 00 be 1b a1 62 bd f4 0f cd bd
       -0.116265476 -0.12589604 -0.055329423 -0.100128084
000030 20 a9 13 bd 97 33 7c bd d6 63 5c bd 85 ce a1 bc
       -0.036049962 -0.061572637 -0.05380615 -0.019751796
000040 fa 83 87 bc db 2d d2 bd 19 c5 9e bd 66 78 06 bb
       -0.016542424 -0.102626525 -0.07752437 -0.002051854
000050 fd 66 e6 bd 68 eb 0a bd f4 95 67 bd 72 34 2f bd
       -0.11250112 -0.033915907 -0.05653949 -0.042774625
000060 fd 0f 0c be 46 0d b9 bd 0b f0 b6 bd 89 ce e2 bd
       -0.13677974 -0.09035735 -0.08932503 -0.1107455
000070 44 10 5f bd d4 0f 4f bd 76 65 82 be 28 6f 28 be
       -0.05445887 -0.050552204 -0.25468034 -0.16448653
000080 c6 ce 91 bd 12 aa 09 be 09 fd 4f 3c 7c 9c c9 bc
       -0.07119517 -0.13443783 0.012694606 -0.02461075
000090 f4 31 42 be a9 74 ed bd b7 e6 a6 bd 7b 8d c3 3c
       -0.18964368 -0.11594517 -0.08149474 0.023871174
0000a0 39 2b e5 bd 7b 75 12 be 44 fd c5 bd e4 16 9a 3c
       -0.11189885 -0.14302628 -0.09667447 0.018809743
0000b0 7b e5 f8 bc 75 ff 32 bd 1f a3 65 be fd 44 1c be
       -0.030382862 -0.043700654 -0.22425507 -0.15260692
0000c0 bf b3 a7 bd 53 48 c3 bd a9 30 43 bc 2b f8 79 bd
       -0.08188581 -0.09535279 -0.011913457 -0.061027687
0000d0 94 16 0e be 23 2b 15 be 5d e1 4a be 2a 89 ab bd
       -0.138758 -0.14567237 -0.19812532 -0.08375771
0000e0 3d c2 12 be dd a3 eb bd a8 d6 0f 3d d4 ad 26 bc
       -0.14331909 -0.11505864 0.03511682 -0.01017328
0000f0 44 ed 09 be 7f d8 09 bd a0 71 52 be 1a db 62 bd
       -0.13469416 -0.033653732 -0.20551157 -0.055384733

batch4.weight f4 [64]
000000 5a 79 94 3f 50 9b 89 3f 02 4a 81 3f bb 4d 7d 3f
       1.1599534 1.0750523 1.010071 0.9894673
000010 4c 1a 68 3f 09 c9 78 3f 8b 5e 7c 3f cc 74 6a 3f
       0.90665126 0.97181755 0.9858176 0.9158447
000020 b1 6e 89 3f cf 63 85 3f f3 d1 77 3f 8c 28 8a 3f
       1.0736905 1.0421084 0.9680473 1.0793624
000030 64 d3 7c 3f 7a 80 73 3f e8 a9 89 3f 83 38 77 3f
       0.98760056 0.95117915 1.0754976 0.96570605
000040 a8 7d 7c 3f de ad 77 3f 91 f3 83 3f 53 53 73 3f
       0.98629236 0.96749675 1.0308706 0.9504902
000050 8c 33 74 3f 10 62 72 3f 74 d3 81 3f fc 5b 84 3f
       0.95391154 0.9468088 1.0142655 1.0340571
000060 b8 0b 80 3f 37 2f 80 3f 6a 1f 89 3f d3 b8 89 3f
       1.0003576 1.0014409 1.0712712 1.0759529
000070 03 7e 5b 3f e0 a9 84 3f e9 be 89 3f 95 08 8f 3f
       0.85739154 1.0364342 1.0761386 1.1174494
000080 b6 7b 83 3f 3f e0 8a 3f ba c5 81 3f 63 1e 74 3f
       1.0272129 1.0849684 1.0138466 0.95358866
000090 ca ba 8a 3f 4e d7 84 3f b3 b3 72 3f 7a 0d 77 3f
       1.0838253 1.0378206 0.9480545 0.9650494
0000a0 d5 9f 87 3f 5f 11 76 3f ef 23 8e 3f 2a e4 63 3f
       1.0595652 0.96120256 1.1104716 0.89020026
0000b0 05 f2 5c 3f c8 2e 71 3f 49 2a 82 3f f6 14 88 3f
       0.8630679 0.9421201 1.0169154 1.0631397
0000c0 32 c2 7d 3f 78 66 85 3f 69 b7 63 3f 5b 9a 7d 3f
       0.99124444 1.0421896 0.88951737 0.9906365
0000d0 8c e6 8d 3f 77 ec 98 3f 36 86 80 3f 14 7d 80 3f
       1.1085982 1.1947163 1.0040958 1.0038171
0000e0 1e 89 6b 3f a8 c3 88 3f 32 b8 6e 3f 0c 63 7a 3f
       0.920061 1.068471 0.9324981 0.97807384
0000f0 70 14 6e 3f 9f 53 7a 3f 77 ab 85 3f 80 19 62 3f
       0.92999935 0.97783846 1.0442952 0.8832016
